public/assets/views/eyetracking_google.onnx (onnx, 579176 bytes, 38 tensors)

lmModel.model.0.weight f4 [128, 8]
000000 16 54 39 3e 3b 64 22 bf 21 ac a5 3f aa 30 15 3f
       0.18098482 -0.6343419 1.2943155 0.5827738
000010 fd 75 c9 bf 99 33 58 3f 47 38 86 bf 63 d3 11 3d
       -1.5739132 0.8445373 -1.0485924 0.035601985
000020 74 ab 11 bf 83 ab a1 3e 99 d8 0f bc 99 08 49 3f
       -0.5690224 0.31576166 -0.008779668 0.78528744
000030 70 db a4 3f ae 17 38 bf 1b 7a 86 3f 27 ad f5 be
       1.2879467 -0.7191113 1.0506014 -0.47983667
000040 25 f8 e8 bf 88 7e bd 3e 5b 4c 4e bf 86 a6 ae 3e
       -1.8200728 0.37010598 -0.8058526 0.34111422
000050 7b b1 65 3c 2f 65 d9 bc 30 03 9f 3d 5b 7b ed 3e
       0.014019365 -0.026537506 0.0776428 0.46383175
000060 6e 8d 8a be 65 80 0e 3f 31 d7 58 bf 70 db 30 3d
       -0.27061027 0.55664665 -0.84703356 0.043178022
000070 ed 2d c9 3e b0 7e a0 bd 8e f5 a8 3d b9 80 0f 3f
       0.3929285 -0.07836664 0.08249961 0.5605579
000080 d0 f2 3c 3e 32 90 a4 be cf 25 af be 91 c0 d9 bf
       0.18452 -0.32141262 -0.34208533 -1.7011892
000090 fb 4c 4e bf 37 a9 d7 3e 62 b2 a1 3c 54 4e 35 bf
       -0.8058621 0.42121288 0.01973838 -0.70822644
0000a0 e0 1b 02 3f 53 34 c5 3f 27 e1 1e bf 18 d4 99 bf
       0.50823784 1.5406593 -0.62062305 -1.2017851
0000b0 03 8a 92 3d 3c ad 57 3f c4 cb c4 be 34 a9 4f 3f
       0.0715523 0.8424871 -0.3843671 0.8111756
0000c0 97 7d 9c bb 30 51 87 3d 53 93 2c be ac ac 3c 3f
       -0.0047757137 0.06607282 -0.16853075 0.73700976
0000d0 0f 4a a9 3d 2e b3 9c 3f 0e 91 91 be b6 c6 ee 3e
       0.08266079 1.2242181 -0.2843098 0.4663598
0000e0 a0 1b 35 3f 0b 2c cb 3f af 54 2e bf a8 9c e0 bf
       0.7074528 1.5872816 -0.68097967 -1.7547808
0000f0 fc 5a 3f 3e 75 30 a0 be d0 6c aa bd fd b2 3f 3f
       0.18687052 -0.3128697 -0.083215356 0.7488249
000100 87 64 fa 3e 1a ed f3 3e 19 61 56 bb a0 ef 54 3f
       0.4890482 0.47641832 -0.0032711683 0.8317814
000110 f6 63 c9 3d 2c 01 51 3f 3b f6 86 3d d8 42 f9 3f
       0.09833519 0.81642413 0.065899335 1.9473524
000120 07 d0 8a be 07 b7 ad 3e b9 ff a3 be 5a 0f b1 bf
       -0.27111837 0.339287 -0.32031038 -1.383281
000130 81 88 76 3e 8f bf 9b 3e ba 25 9d 3e 29 26 8a 3f
       0.2407551 0.30419585 0.30692846 1.0792896
000140 9b 6c 92 be d5 45 42 bd 98 72 d8 3e c2 9e ba bf
       -0.28598484 -0.04742988 0.42274928 -1.4579699
000150 7e d9 09 3f 0f df e5 be 19 0e 9d 3f f1 35 ca bd
       0.5384749 -0.44896743 1.2269927 -0.0987357
000160 dd 3f 9e 3e 74 43 95 3d fd aa 23 3f 39 42 5c be
       0.309081 0.07288256 0.6393278 -0.21509637
000170 0d 04 da be ec 71 93 be 7b fc 3e 40 ea 4a 25 bf
       -0.42581216 -0.28797853 2.9841602 -0.64567435
000180 07 5f 99 3d b6 c0 6b 3f 95 df 3e be 56 f8 0c bf
       0.07488828 0.9209093 -0.18639977 -0.5506643
000190 d6 6e 9c 3f c7 00 3d bf 66 74 a4 3e 76 44 73 3f
       1.2221324 -0.7382931 0.32120055 0.9502634
0001a0 9e 05 5c bf bf ed 2b bf 42 1a 94 be d5 93 49 bf
       -0.8594607 -0.67159647 -0.28926283 -0.787412
0001b0 24 5f 07 bf 31 e4 89 be fe 0f e0 be 38 44 08 bf
       -0.5287955 -0.2693191 -0.437622 -0.53229094
0001c0 22 85 65 be bd 32 05 3f 16 19 cc 3d 1c e9 8b 3e
       -0.22414067 0.52030545 0.09965722 0.27326286
0001d0 73 a2 4c 3e 25 93 39 3f 3e ca 7c be 63 25 73 3f
       0.19983844 0.7249015 -0.24686524 0.9497892
0001e0 3c b2 d3 bd 79 cb 0f 3f b0 79 82 bf 88 89 91 3f
       -0.1033673 0.5616985 -1.0193386 1.1370096
0001f0 dd 25 0b bf da c3 4e 3f a7 c1 51 3f 0e 4f 3d 3f
       -0.5435465 0.80767596 0.81936115 0.7394875
000200 e6 33 3a bf 1b 42 38 3f 37 96 51 bf 15 ca d3 3f
       -0.7273544 0.7197587 -0.81869835 1.6546046
000210 c6 07 91 bd 9a e5 6d bf 3b c5 67 3f fe 50 c4 bf
       -0.07081561 -0.9292847 0.90535325 -1.5337217
000220 74 c8 7f bf 7e 6e 58 be a5 06 35 3f 5f 8d c3 bd
       -0.9991524 -0.211359 0.70713264 -0.09548449
000230 d9 63 b0 bf 9d e1 f8 be 48 f7 55 c0 ac 3c 00 3f
       -1.3780471 -0.4860963 -3.3432178 0.5009258
000240 f7 ac 12 3f fe 77 5b 3f 33 38 40 bf ee 2e 37 c0
       0.57295173 0.8572997 -0.75085753 -2.8622394
000250 fb 1d b9 be 5f 68 c5 be 20 15 a5 3e 50 35 40 3e
       -0.36155686 -0.3855619 0.3224268 0.18770337
000260 7b 89 6a 3d ac 80 ec 3e 39 6e 90 3e 48 de 89 bf
       0.057260018 0.4619192 0.28209093 -1.077096
000270 21 e9 4b bf d0 43 16 40 d7 db ef bd 70 04 c5 3f
       -0.796526 2.347889 -0.11711853 1.5391979
000280 cb 60 83 bf cc 4d 65 be 5e 5f 46 bf a4 d7 f7 3e
       -1.0263914 -0.22392958 -0.7748927 0.48406708
000290 9a 6c 8c 3f 0f a5 95 3e de fa d6 3f f1 7e 83 be
       1.0970643 0.29227492 1.6795309 -0.25682786
0002a0 2b 80 50 3e c9 05 2a 3e 76 5b 1a be c2 51 98 3e
       0.20361392 0.1660377 -0.15073952 0.29749876
0002b0 c4 3b 5f bc 51 b2 72 3f de 49 f4 3c 9c bd ff 3e
       -0.013625089 0.9480334 0.029820379 0.49949348
0002c0 01 ab 1b bf 39 6b 85 bf df 64 64 3d ab 42 8f be
       -0.60807806 -1.0423347 0.05576026 -0.2798055
0002d0 95 67 54 bf 46 87 8b bf 38 54 ec 3d f1 a9 66 bf
       -0.82970554 -1.0900657 0.11539501 -0.9010306
0002e0 be 7b 2f bf 02 e1 8f be 57 4d 81 bf ed f4 3c bf
       -0.6854819 -0.28101355 -1.0101727 -0.7381123
0002f0 4d 03 4d 3f 5f d5 1a 3e 63 8d a9 3f 3f 65 7c bf
       0.8008316 0.15120457 1.3246273 -0.9859199
000300 d1 ae 91 bf 1a f1 75 be 2d bd 1f bf e2 f9 57 bf
       -1.1381475 -0.24017754 -0.62398034 -0.84365666
000310 ab 08 2a be ed 3b 30 3f d6 10 9e 3e 82 ae 46 3f
       -0.16604869 0.6884144 0.3087222 0.7761003
000320 25 1c 41 3f 6e c5 33 bf 4f ab dd 3e c6 01 0e be
       0.7543357 -0.7022313 0.4329476 -0.13867864
000330 b6 a9 a9 be 5f 22 1b 3d 5b 47 86 bc 95 1f 3f bf
       -0.33137292 0.037874576 -0.016391447 -0.74657565
000340 e9 32 5e bf 85 f5 53 3f 83 bb f4 be c6 b5 77 3f
       -0.8679643 0.8279651 -0.4779931 0.9676174
000350 92 22 c6 3b 9c 8c db 3e 98 e6 1c 3f 36 0a 08 3f
       0.0060466016 0.42880714 0.6128936 0.5314058
000360 5f 38 18 be 33 75 12 bf 0e aa 04 3f 63 1a c7 bf
       -0.14865254 -0.5721008 0.5182198 -1.5554928
000370 95 2b 2b bf b2 40 bd bf 13 40 1a 3f 4e a0 e1 bf
       -0.66863376 -1.4785368 0.6025402 -1.7627046
000380 7e 87 69 bf 1a a4 2c 3f 43 7d 8b bf e3 0e 08 3e
       -0.9122237 0.674379 -1.0897602 0.13286929
000390 fb 16 ca 3e 27 7e 3b 3f 9e 9d c7 bd f8 ac fb 3e
       0.39470658 0.7323937 -0.0974686 0.49155402
0003a0 91 4a ea 3e db 0a d4 3f 00 8f e5 be 16 d0 f0 bf
       0.45760015 1.6565813 -0.44835663 -1.8813503
0003b0 00 bc 4c 3e 54 23 07 bf 6a 18 b2 3c 59 b2 17 3f
       0.19993591 -0.5278828 0.021740157 0.5925651
0003c0 18 9c 53 3e 9f b6 a0 3d cf 71 29 be e9 78 8a 3f
       0.20665014 0.07847332 -0.16547321 1.0818149
0003d0 f9 51 a5 3f 97 9a 3b bf 06 fc 48 3e f7 79 77 bf
       1.2915641 -0.7328276 0.1962739 -0.9667048
0003e0 bb 28 b3 3f ca ab b8 bc ba e4 b2 be 47 54 63 be
       1.3996805 -0.022542853 -0.3494013 -0.22200118
0003f0 8c 7b 63 bf d2 a3 8e 3d ef 59 43 40 9e aa e8 3d
       -0.8886039 0.0696484 3.052364 0.11360668

lmModel.model.0.bias f4 [128]
000000 64 40 50 be 80 83 f0 bd ad b2 a9 3e 30 3d b9 bd
       -0.20337063 -0.11743832 0.3314413 -0.09044874
000010 a8 db ca 3d 15 a1 8d 3d a2 a0 15 bd 4a d0 e1 bc
       0.09905177 0.069154896 -0.036530145 -0.02756514
000020 c9 fd 41 3e 7f eb e9 3c dd 1a 33 3e 72 1c 3c bd
       0.18944468 0.028554676 0.17490716 -0.045925565
000030 07 14 e1 3d 1b 32 2e be 1f 3b e7 3d a1 be 98 3e
       0.10990148 -0.17011301 0.11290573 0.29832938
000040 f6 8e bf 3d 40 4b 6f be 77 9e 0a 3e 9a 94 84 3e
       0.093534395 -0.2336855 0.13537012 0.25894624
000050 66 75 7b 3e c7 d6 92 3e 2f c4 92 be e5 98 d9 bd
       0.24556503 0.28679487 -0.286653 -0.106248654
000060 67 fc 46 be 53 be 97 3e 0b 02 ae 3e 2a fb b0 3e
       -0.19432221 0.29637393 0.33985934 0.34566623
000070 58 d9 84 bd ad fe 2e be 45 54 8e bc 50 f2 bc 3e
       -0.064867675 -0.17089339 -0.017374167 0.3690362
000080 ac 75 de bb 68 c5 80 be 57 b3 a9 ba 5f 37 10 be
       -0.00678893 -0.2515061 -0.0012947124 -0.14083622
000090 c2 8b 08 be 52 02 5d be b9 1b 59 be 93 05 5a 3c
       -0.13334563 -0.21582916 -0.21201982 0.013306993
0000a0 1d e2 71 be 83 ee 81 bd 52 82 94 be c3 a2 3b be
       -0.23621412 -0.063443206 -0.29005677 -0.18323807
0000b0 cf f1 ac 3e 4d 97 81 be be 7c 92 3e b0 ea 66 be
       0.33778235 -0.25310746 0.28610796 -0.22550464
0000c0 75 68 68 ba 47 56 21 3d 63 f6 88 be 2d 81 39 be
       -0.0008865663 0.03938892 -0.26750478 -0.18115683
0000d0 da b4 3f be f3 b7 64 3e c7 ce a5 bd 16 ae f2 3b
       -0.18721333 0.22335796 -0.0809608 0.0074060066
0000e0 fa 9e 33 3e 7f 45 32 3e 8c 9f c6 3d f8 1f 85 3e
       0.17541113 0.17409323 0.096984 0.26000953
0000f0 a7 0f 60 3e 34 79 73 bf d6 df 02 be 75 0f 01 3d
       0.21880971 -0.95106816 -0.12780699 0.03150888
000100 2b aa 01 be cc a1 ed be 65 27 56 3d 21 f9 a0 bd
       -0.1266257 -0.46412504 0.052283663 -0.078600176
000110 00 19 aa ba 7d 07 5e be 95 4e ab bd 8f fd 55 bd
       -0.0012977421 -0.21682544 -0.08364598 -0.052243765
000120 3c 66 93 be f1 4f 05 3c 35 55 0e 3e c2 78 b6 bd
       -0.28788936 0.008136735 0.13899691 -0.089097515
000130 ac b9 fc bd 5b ff d1 3d 03 9e af bd a2 10 b2 3d
       -0.123401016 0.10253783 -0.0857506 0.08694579
000140 74 d8 a0 bd ed d3 e3 bd d3 1c 0f 3e 8b d6 92 be
       -0.07853785 -0.11124406 0.1397584 -0.28679308
000150 66 a1 a4 3e 6b 42 10 3b bc 40 4f 3e 42 4e b9 bd
       0.32154387 0.0022012244 0.20239538 -0.090481296
000160 e9 62 11 3e 91 b8 3c 3e b3 0a df 3d 9a 9d 2e be
       0.14197887 0.18429781 0.108907126 -0.17052308
000170 48 22 ab 3e 46 79 f0 bc 14 b9 39 bd cf e3 b2 3d
       0.33424592 -0.029354703 -0.04534252 0.08734857
000180 91 2c 12 bd 1e 6d b6 3d ee 5b 77 be b7 10 a3 be
       -0.035687033 0.08907531 -0.24156162 -0.3184869
000190 05 ba 86 3e 7a 9a 90 3e 4d cd 74 bd c5 ba 13 3e
       0.26313797 0.28242856 -0.059766103 0.14426716
0001a0 08 3e 8c 3e 34 dd ae 3e 2c c6 df bd b6 30 48 3e
       0.27391076 0.3415314 -0.1092647 0.19549832
0001b0 c3 24 9b 3e 97 ef b5 3e 70 25 0c 3e fa 26 0c 3d
       0.30301484 0.35534355 0.13686156 0.03421686
0001c0 b3 35 4a bd fc 50 79 bc 3e 63 18 be 72 ae a6 be
       -0.049367618 -0.015217062 -0.14881608 -0.32554966
0001d0 79 df 93 be 7b 69 76 be 7b a2 af bd e7 b9 2d bd
       -0.28881434 -0.24063675 -0.085759126 -0.04241362
0001e0 4e 22 cd 3b 05 27 92 3e 1b d4 2c be ce 97 16 bd
       0.006260193 0.28545395 -0.16877787 -0.036765866
0001f0 70 96 68 3e fd ba 79 3e 95 af 41 be e7 36 21 3e
       0.22713637 0.24387737 -0.18914635 0.157436

lmModel.model.1.weight f4 [128]
000000 7a bf f0 3f a9 f2 ac 3f 46 9b ea 3e 28 b2 d8 bd
       1.8808434 1.3511554 0.4582159 -0.105808556
000010 70 58 ec 3f ff 3f 52 3f 5d 7b 34 3e a4 aa 6d 3f
       1.8464489 0.821289 0.17625184 0.928385
000020 89 19 2e 3f 0d af 38 bd 29 a1 e3 3f be d0 8a 3f
       0.68007714 -0.045088816 1.7783557 1.0844953
000030 e8 b5 ec 3e cb 5b dd 3e 2d 36 a5 3d 20 cf a7 3e
       0.46232533 0.43234095 0.08066974 0.3277521
000040 ce 3e 04 40 dc 10 bd 3f d5 d9 be 3f 28 d5 a4 3f
       2.0663333 1.477077 1.4910227 1.287755
000050 9a bd ae 3f 35 5c 9b 3d ab 69 22 3f 5a 80 cd 3f
       1.3651612 0.075859465 0.63442487 1.6054795
000060 c5 ad 55 3f 3d b1 87 bd 45 1f 24 3f 1f 20 92 3f
       0.83468276 -0.066256024 0.64110214 1.1416053
000070 0a 4f 78 3f f1 a8 5a 3f b8 34 6c 3f e8 6a 95 3f
       0.96995604 0.85414034 0.9226794 1.167325
000080 3d cb 34 3f 05 9d 69 3f 6e 2b f6 3e fe 10 42 3f
       0.70622617 0.9125522 0.4808001 0.7580718
000090 44 9a 66 3f 0f a5 67 3f 29 72 cc 3f e9 a7 d5 3f
       0.9007914 0.90486234 1.5972339 1.6691867
0000a0 5a 67 c4 3f bf bb 1f 3f e5 a6 7d 3f 80 4d e2 3e
       1.534404 0.6239585 0.99082786 0.44199753
0000b0 b0 32 0c 3e d8 1a 71 3d b1 a2 63 3f 00 2f da 3f
       0.13691211 0.05886349 0.8892012 1.7045593
0000c0 c5 ce 40 3e 88 08 20 3f 7e fc da 3f d7 fc 84 3f
       0.18828876 0.6251302 1.7108305 1.0389661
0000d0 10 7e 34 3d d2 af 20 3f 12 b0 9e 3d 32 c4 a1 3f
       0.044065535 0.6276828 0.077484265 1.2637999
0000e0 17 66 74 3f 46 c8 03 40 a3 06 f5 3e 9a 37 0f 3f
       0.95468277 2.0590987 0.47856626 0.55944216
0000f0 a2 c4 ac 3e 3a 59 ff 3f 81 81 c2 3f b3 4b d6 3f
       0.3374377 1.9949105 1.5195771 1.6741852
000100 dd 03 d4 3e fe f3 4d 40 24 45 4d 3f 28 3d 9b 3e
       0.41409197 3.218017 0.80183625 0.30320096
000110 e4 7a e9 3f bb ab cd 3e 56 9e 7e 3f d9 9d d1 3e
       1.8240628 0.40170082 0.9946035 0.4094074
000120 8d a9 06 3f 2f e4 4c 3f 6c 0b 60 3f 0d 09 81 3f
       0.52602464 0.8003568 0.8751743 1.0080887
000130 f1 34 bb 3f a8 67 89 3e c8 56 a3 3f c9 02 6a 3f
       1.4625531 0.26836896 1.2760859 0.914105
000140 4f e8 b7 3b d2 69 6b 3d 61 3a 84 3f 42 02 c8 3f
       0.00561241 0.057473965 1.0330316 1.5625689
000150 6e 85 91 3f 87 a8 a2 3e 36 09 95 3f 0c 14 cb 3f
       1.1368845 0.317692 1.1643436 1.5865493
000160 91 be c7 3f f8 c4 4f 3f 67 9d a7 3f 10 f4 d2 3f
       1.5605031 0.81159925 1.309491 1.6480732
000170 35 b0 4f 3f 8b 16 5a 3f 08 88 4a 3f 10 bd aa 3d
       0.81128246 0.8519065 0.7911382 0.08336842
000180 6d a3 41 3e b8 b3 34 3d d7 d3 ae 3f 36 6d 21 3f
       0.18909998 0.044116706 1.3658398 0.6305727
000190 72 c5 97 3f 38 f8 22 3f 8c 4f 5d 3f 68 fa f3 3d
       1.185713 0.6366 0.86449504 0.119129956
0001a0 21 82 b1 3f 18 d8 d8 3e a1 d3 1f 3e b5 04 3e 3f
       1.3867837 0.42352366 0.15608074 0.7422593
0001b0 db 21 bb 3e f7 5f 88 3f ea 4c 9a 3f 9b 60 cb 3f
       0.36549267 1.0654286 1.2054722 1.5888857
0001c0 65 a4 c7 3f 9f 0a 55 3e b4 04 0b 3f 5d a2 f2 3f
       1.5597044 0.20804833 0.5430405 1.8955799
0001d0 96 f6 83 3f ca 5f 68 3f 18 fe a2 3e 94 4f 3d 3f
       1.0309627 0.9077116 0.31834483 0.7394955
0001e0 96 98 a1 3f 09 46 91 3e db d6 65 3f 93 63 95 3f
       1.262469 0.28373745 0.8978097 1.1671013
0001f0 25 e8 34 3e 64 5c b2 3f 22 6d 3b 3f ce 03 e6 3e
       0.17666681 1.3934445 0.732134 0.44924778

lmModel.model.1.bias f4 [128]
000000 56 3a f0 3f 85 62 33 bf 92 40 94 be 13 3c 3a 3f
       1.8767803 -0.70072204 -0.28955513 0.72747916
000010 7e c5 00 bf a5 f2 fd 3e ac 3e 59 bf e3 4d 86 3f
       -0.5030135 0.49599186 -0.84861255 1.0492519
000020 c8 dd 1d bf b4 43 5f 3f e6 19 09 bf 24 87 20 3f
       -0.61666536 0.8721268 -0.5355514 0.6270621
000030 c8 b1 9b 3f f0 d7 07 bf be ea e4 be 5a 2f 74 3d
       1.216363 -0.5306387 -0.44710344 0.05961547
000040 18 9e 62 bf 4e 9e 87 be e1 cb f2 3f 05 d3 2e bf
       -0.8852248 -0.26487964 1.8968469 -0.6829074
000050 a3 5e a8 bf f9 3e ba be ff ac 22 3f f0 94 88 be
       -1.3153881 -0.3637617 0.6354522 -0.2667613
000060 09 04 12 bf 87 06 0c 3f 27 c7 9e bf 2c b9 9b bd
       -0.5703741 0.5469746 -1.2404526 -0.07603678
000070 80 af 01 bf eb a8 7b 3f 1a de d8 3e c9 ac b3 3e
       -0.50658417 0.98304623 0.4235695 0.35092762
000080 40 09 53 3f 44 50 04 bf a6 68 df 3d 0f d9 12 bf
       0.8243599 -0.51684976 0.10908632 -0.57362455
000090 07 13 c3 3f ae b4 b7 be 93 b3 a5 be 3f 19 03 bf
       1.5240182 -0.35880035 -0.32363567 -0.512104
0000a0 7a 03 bf 3f 94 4a 36 3f 21 e0 e8 3e 1b c7 ce bf
       1.4922936 0.7120755 0.45483497 -1.6154512
0000b0 1f 6d a9 3e 0d 13 d2 be 6f bb 27 bf ba e0 ce bd
       0.33091065 -0.4103016 -0.65520376 -0.10101457
0000c0 dd f9 a0 bf 0d 9e 37 be 34 17 83 3c 57 68 66 3e
       -1.2576252 -0.17931385 0.016002275 0.2250074
0000d0 80 ac c0 be 2d 19 02 bd 59 aa fd be 75 9b 54 bf
       -0.37631607 -0.03176229 -0.49544027 -0.8304971
0000e0 f6 2a d1 bd fa d0 79 3f c8 13 f2 3e 8a f6 e0 3d
       -0.10213272 0.975845 0.47280717 0.109845236
0000f0 5b 45 9d bf 40 df c5 3d 2d 93 ba bf fa 38 f0 3f
       -1.2286791 0.09661722 -1.4576164 1.8767388
000100 98 cb 43 bd a6 cb e1 3f 16 a6 43 bf 87 ad 1b 3f
       -0.047801584 1.7640274 -0.764253 0.60811657
000110 15 bc 69 bf 15 4f f2 3c 2e 70 ef be a4 2e b1 bf
       -0.91302615 0.029578725 -0.46765274 -1.3842359
000120 ed 43 67 3e 29 59 77 3f 67 84 57 3d 8f 21 f3 be
       0.22584505 0.9662042 0.052616503 -0.4748654
000130 db f5 59 3f b2 7a 2c 3f 68 56 33 bf ee 9f b6 3e
       0.8514077 0.6737472 -0.7005372 0.35668892
000140 ea 08 b3 3d b0 6d 99 be ed e9 e0 3f 71 92 eb be
       0.087419346 -0.29966497 1.7571388 -0.46010163
000150 b7 c9 09 bf e1 eb 9a bf e4 f9 57 bf cb b2 d9 be
       -0.5382342 -1.2103235 -0.8436568 -0.4251922
000160 da 09 d8 3f 91 9f 55 bf 3d db 07 bf 34 9d 6a bf
       1.6878006 -0.83446604 -0.53068906 -0.9164612
000170 69 a3 58 bf fb 4a c6 3f 6e ca ed 3e d8 d8 d2 be
       -0.84624344 1.5491632 0.46443504 -0.41181064
000180 c7 ac 76 bf ba 97 82 3f aa 50 b0 3f b1 e6 c1 3e
       -0.9635739 1.0202553 1.3774617 0.37871316
000190 f3 0f 85 bf bd 9d e7 3f 8d 7d da 3e 25 55 20 bf
       -1.0395492 1.8095013 0.42673913 -0.6262992
0001a0 10 d2 9d 3f 28 8a 92 3e 0c d8 85 bf 04 bb 33 3f
       1.2329731 0.2862103 -1.0456557 0.7020724
0001b0 2b 9a 76 3e 84 10 7a 3f ef 34 85 3f 54 d9 03 bf
       0.24082248 0.9768145 1.0406779 -0.5150349
0001c0 be e3 8a be d0 bf 3a bf 00 6b 30 3e 4a 5b 80 3f
       -0.27126878 -0.7294893 0.17228317 1.0027859
0001d0 0d 70 0f bf 86 3b 34 3f 37 c7 55 bf b7 88 5d bf
       -0.5603035 0.70403326 -0.835071 -0.86536735
0001e0 ff e7 ea be 73 80 62 bf e4 82 09 bf 27 1f 51 3e
       -0.45880124 -0.8847725 -0.5371535 0.2042204
0001f0 45 9d 71 bf 7a ca a3 3f aa 75 3f bf 21 4a 81 bf
       -0.943806 1.2796166 -0.74788916 -1.0100747

lmModel.model.1.running_mean f4 [128]
000000 92 ea 48 bf d8 6f 4b 3e 0a 5e 61 be ae 0c 55 3e
       -0.78482926 0.19866884 -0.2200853 0.20805618
000010 bd ce a5 be 20 7d aa 3f e1 46 22 3f 95 6b 57 3f
       -0.3238429 1.3319435 0.633894 0.8414853
000020 9d 86 95 3f 92 21 a7 3e aa 81 01 3e 3a 94 8b bd
       1.1681706 0.326428 0.12647119 -0.06815381
000030 70 1f 5e 3f e1 99 a8 bf 7b 05 41 3f 20 6d 32 3f
       0.8676672 -1.317196 0.7539899 0.6969776
000040 e6 6c a0 be 38 f7 e3 bf 55 e0 77 3e 41 c8 9b 3f
       -0.31333083 -1.780982 0.2420667 1.2170488
000050 ed 85 fc 3e 48 89 68 3f 88 7a fd bf 4d 3c c4 bd
       0.49320927 0.90834475 -1.9803019 -0.09581814
000060 22 b8 09 bf 41 01 cb 3d 66 7b 2a 3f ce 57 8c bf
       -0.5379659 0.099123485 0.6659454 -1.0964296
000070 6f 47 c8 3e 9d 97 0b 3f 5a eb d6 3e e4 02 25 3f
       0.39117 0.5452822 0.41976434 0.64457536
000080 cb c3 6a 3f fa 69 a1 bf 17 4a 33 be 5a 15 c1 be
       0.91705006 -1.2610466 -0.17508732 -0.37711602
000090 45 03 b4 3e dd 6a b3 bf a9 69 be bf 91 26 01 be
       0.35158744 -1.4016987 -1.4875995 -0.12612368
0000a0 49 08 40 3e 8e 39 26 bf 2a df b1 be 46 18 ef be
       0.1875316 -0.6493157 -0.34740573 -0.46698207
0000b0 9f 5f 56 3f 76 27 67 bf d2 d6 bb 3f 4c 70 94 bd
       0.83739656 -0.9029459 1.4674933 -0.072479814
0000c0 83 b1 11 bf 7d fb 79 bf 48 18 5a be 3a 13 8b bf
       -0.56911486 -0.97649366 -0.21298325 -1.0865242
0000d0 76 ed 88 3e 09 2e 96 bf a6 cf fd 3e a5 5a cd 3e
       0.26743668 -1.1732799 0.49572486 0.4010822
0000e0 da 82 ea be bc 4e 4e 3d 66 ff d2 bf 80 61 87 be
       -0.45802957 0.050368056 -1.6484191 -0.26441574
0000f0 24 6b 96 3f d5 8c 92 bf c5 d3 d8 bb 38 d0 01 bd
       1.1751447 -1.1449229 -0.006617042 -0.031692713
000100 79 12 01 bf 77 6e 0d bf d0 d7 b7 bd c8 b6 27 3f
       -0.5041881 -0.5524668 -0.0897671 0.6551328
000110 90 3e f1 3e 67 a6 de 3c 7c eb 22 3d 92 46 2d 3f
       0.47118044 0.027178956 0.039775357 0.67685807
000120 4b d0 47 bf e4 ea d9 be bd 9c c8 bf 40 b5 ea 3e
       -0.78052205 -0.4256202 -1.5672833 0.45841408
000130 cb 61 d0 bd d5 b1 be bd d4 3c a6 bf d0 c2 a4 be
       -0.101749025 -0.093112625 -1.2987313 -0.3217988
000140 7f 45 b2 be 74 98 2d be ae f0 5b 3f 35 b1 4c bf
       -0.34818646 -0.16952688 0.85914123 -0.79957896
000150 63 8c d6 3e cf 92 0d 3f a3 ec 35 3f be 0b 9c be
       0.41903982 0.5530214 0.71064204 -0.3047771
000160 21 59 ae be 32 63 6a 3f 26 3a a6 3e 1c 07 0e bf
       -0.34052375 0.9155761 0.3246624 -0.554796
000170 d1 4a d4 3e 14 dd 63 3f 19 ef 18 3f 64 4f b8 3e
       0.4146333 0.89009213 0.59739834 0.3599807
000180 d2 d5 a6 3e d0 0d 5a 3f 8a 5a 46 bf b0 ec 8d 3e
       0.32585007 0.85177326 -0.774819 0.2771964
000190 1f 1d 3e be 05 fb 42 3f 59 16 df 3e 6b 93 75 3c
       -0.18565796 0.76164275 0.43571737 0.01498876
0001a0 5d 53 2b 3d 55 ba 99 3f e4 ec 69 bf 8f b1 7f bf
       0.04182755 1.2009989 -0.9137709 -0.9988031
0001b0 d5 2a 62 3f 34 1d 33 bf ee 43 53 bf 94 10 f5 3e
       0.88346606 -0.69966435 -0.8252553 0.4786421
0001c0 97 17 01 3f da 20 3d bf bf 59 6a 3f a2 78 60 be
       0.5042662 -0.7387825 0.9154319 -0.21921018
0001d0 f5 ff b7 bf e6 39 be be 41 19 ad 3e d0 60 9d be
       -1.4374987 -0.37153548 0.3380833 -0.30737925
0001e0 06 fc 25 3e ce a9 96 3e 23 89 90 bf d0 db 1c bf
       0.1620942 0.29426426 -1.1291851 -0.6127291
0001f0 7c af 1f 3f eb 9f 58 bf df 85 9b bf 73 6c e8 3e
       0.6237714 -0.84619015 -1.2150229 0.4539524

lmModel.model.1.running_var f4 [128]
000000 df fa 7a 3b 71 1c 65 3b 41 0f 10 3c 2f 07 0c 3b
       0.0038296503 0.003495958 0.008792699 0.0021366586
000010 38 1c 18 3b 1f 19 55 3d 9c 0d 6f 3c 87 be 92 3c
       0.002321018 0.05202591 0.014590647 0.017913116
000020 2f 3d 83 3c f0 30 6e 3b 05 01 2d 3b 8c 79 e4 3a
       0.016020386 0.0036345087 0.0026398313 0.0017431243
000030 f7 cd 70 3b ee af 41 3c bb 84 61 3c 8e 12 8e 3c
       0.0036743858 0.01182173 0.013764556 0.017342832
000040 1b 79 04 3b fc 03 6f 3c b9 3e 98 3b b8 02 8e 3d
       0.0020213786 0.014588352 0.004646149 0.06934112
000050 70 0e f0 3a ff 6c 33 3c f1 f4 35 3d d4 86 b4 39
       0.001831485 0.01095128 0.044423047 0.0003443273
000060 8d d6 b0 3b 9e 86 98 3b e1 d8 85 3c 1c be 1f 3d
       0.00539667 0.0046547195 0.016338767 0.03899966
000070 c1 59 92 3c a8 ff 5c 3c 65 47 fa 3b 63 ba 1c 3a
       0.017865064 0.013488688 0.0076379054 0.00059787015
000080 b8 09 b0 3c 37 28 a5 3c 0c bb 13 3c 94 a8 a0 3b
       0.02148901 0.020160777 0.009016763 0.0049029086
000090 6f e6 b1 3b 8e 6d 1c 3c 66 22 8d 3c 4f d4 a3 3b
       0.005429081 0.009547604 0.017228317 0.0049996744
0000a0 d7 ba c2 3a 9c 75 14 3c c1 4a 2d 3a ed 86 88 3b
       0.0014856708 0.009061243 0.00066105655 0.004166475
0000b0 10 15 b9 3c 4e 61 b4 3b d6 76 8b 3c a4 88 27 3b
       0.022593051 0.0055047637 0.017024439 0.0025563622
0000c0 a3 fc fb 3b 87 ca 90 3c c0 9c 6a 3b ef ce 9e 3b
       0.0076900288 0.017674698 0.0035798997 0.0048464458
0000d0 ec dd 53 3c 10 f4 52 3c 8d 53 3c 3c 33 dd d7 3a
       0.012931328 0.012875572 0.011494529 0.0016469121
0000e0 fe fd af 3b 6f ac a0 3a f3 80 60 3d 76 94 ce 3a
       0.0053708544 0.001225842 0.054810476 0.0015760798
0000f0 f0 c2 af 3b e7 1a ce 3a ef dd 38 3b 3c bd ad 3a
       0.0053638145 0.001572457 0.0028208455 0.0013255249
000100 55 31 99 3b a7 f8 80 3a f3 c5 0d 3c f3 e1 f9 3c
       0.0046750703 0.0009839729 0.008653152 0.030503249
000110 62 9f a4 3b ed 2d d0 3c 42 98 63 39 f3 95 7e 3b
       0.0050238827 0.025412524 0.00021705127 0.00388467
000120 c1 50 f4 3b 7e 89 b5 3b 78 b8 bc 3c de 6a 0d 3d
       0.0074559157 0.005540072 0.02303718 0.034525745
000130 31 48 6b 3a bf 16 09 3c fc fa ea 3c e6 5b 2f 3b
       0.0008975296 0.0083672395 0.028684132 0.0026757657
000140 13 c7 c7 3b 9f 91 44 3c a1 21 99 3c 09 cb 7a 3b
       0.0060967295 0.011997609 0.018692793 0.003826799
000150 17 fe 79 3a 5c 36 f9 3a ef 7d 9c 3b 26 01 a6 3b
       0.00095364585 0.0019013393 0.0047757546 0.005066055
000160 f1 76 63 3c 41 7f 57 3c 31 7d d5 3a ab 46 87 3b
       0.013883338 0.013152898 0.001628792 0.0041282973
000170 fa 0a 83 3b 89 55 57 3c 41 27 07 3d 62 79 b7 3a
       0.0039991112 0.013142952 0.03299642 0.0013997967
000180 28 63 55 3b e0 ff 93 3c d6 98 35 3c 9b 42 dd 3c
       0.0032560322 0.018066347 0.011083802 0.027009299
000190 58 d5 e4 3b 89 a9 50 3b 01 28 0d 3d d8 de c4 3a
       0.0069834404 0.0031839332 0.03446198 0.0015020026
0001a0 de a6 ab 3a 35 dd 0c 3c fa 7c 21 3c 04 51 7c 3c
       0.0013095995 0.008597662 0.009856457 0.015400175
0001b0 06 64 9c 3c 45 9a 5c 3c be f7 1f 3c 1e 79 0f 3b
       0.019090664 0.013464515 0.009763656 0.002189226
0001c0 2f 29 51 3c 32 1a 06 3c 99 cb 14 3c 7e a6 ce 3a
       0.012766167 0.008184956 0.009081745 0.0015766171
0001d0 2b 89 c6 3c a1 9b 6e 3b 3b 8b 13 3c d3 9e 72 3b
       0.024235329 0.003640868 0.009005363 0.0037020936
0001e0 e7 76 f1 3b b5 a6 58 3b db 8e a2 3c 0e d4 28 3c
       0.0073689106 0.003305835 0.01984351 0.010304464
0001f0 28 1a da 3a c2 8a 7d 3c e8 d6 0c 3c dd a8 b0 3a
       0.0016639875 0.015474977 0.0085961595 0.001347806

lmModel.model.3.weight f4 [16, 128]
000000 0b 6d 7c bf d2 07 7d be 6e 85 ec 3b ee 9e 3c 3e
       -0.98603886 -0.24710014 0.0072180545 0.18420002
000010 54 fc a0 3f 12 8b 34 3f 53 50 17 bd 6d b3 48 3f
       1.2577004 0.70524704 -0.036941838 0.7839878
000020 f3 3a 4c be 81 9c d1 3d 58 66 24 bf ac c7 8a bf
       -0.19944362 0.10234929 -0.64218664 -1.0842185
000030 ef 51 82 3e 37 35 5b 3e e6 27 9f bd 7d c1 31 be
       0.25453135 0.21407019 -0.07771282 -0.17358966
000040 11 0d a5 bf 4b e3 81 3e 57 e9 95 3f 92 4c 3c 3f
       -1.2894613 0.25368723 1.1711835 0.7355434
000050 8f c6 08 bf 97 41 2f 3d 60 23 67 bf 7c 92 10 bf
       -0.53427976 0.04278716 -0.9028835 -0.5647352
000060 4b f0 57 bf 5e 67 61 be 97 0c d7 3e 7e ec 26 bf
       -0.8435103 -0.22012088 0.42001793 -0.6520461
000070 e6 f8 62 3f 92 91 34 3f 99 c6 aa be ff d9 7f bf
       0.8866104 0.7053462 -0.33354643 -0.9994201
000080 bb bb 0d 3f b5 b9 90 be 54 ba 2d 3e 7c 8f a4 bd
       0.5536458 -0.28266683 0.1696561 -0.0803518
000090 87 b4 27 3e 37 e8 e2 3d 69 d8 0d be 11 ee b1 be
       0.1637746 0.11079448 -0.13852085 -0.34751943
0000a0 77 da 25 bf 19 f7 73 3e b0 76 26 3f 4d 19 31 be
       -0.64786476 0.23824729 0.6502485 -0.17294808
0000b0 98 0b 59 3e 1c 20 09 bf b4 0d 22 bf 85 68 01 bf
       0.21195829 -0.5356462 -0.6330216 -0.5055011
0000c0 03 4b f2 be 40 c7 33 bf 41 77 e5 be 6e c1 46 3f
       -0.47322854 -0.70225906 -0.44817546 0.776389
0000d0 92 55 fc 3d bb 10 67 3e fc ad 96 3d 29 f4 a6 3e
       0.12321009 0.22564976 0.07357404 0.32608154
0000e0 d9 6d 87 3e 97 ae c2 be f8 95 1f bf 2a 6b c2 3c
       0.26450995 -0.38023826 -0.6233821 0.02373274
0000f0 25 bb 28 bf 00 4f da 3e 2c 42 25 bf 72 8b 8c be
       -0.6591056 0.42638397 -0.64554095 -0.27450138
000100 d4 80 c4 3e 62 61 b7 bf bf f4 fb be 3c 3d a9 3d
       0.38379538 -1.4326594 -0.49210164 0.08263633
000110 cb a9 8a 3f f0 3e 2d 3d e3 fe 06 be b1 3a 95 bf
       1.0833067 0.04229635 -0.13183169 -1.1658536
000120 2f 36 20 3e a4 55 1f be 1f 52 c0 3d 94 74 3d 3f
       0.1564567 -0.15560013 0.09390663 0.7400601
000130 96 d1 99 bf 79 12 e6 bd e9 3c 50 bf 2c 98 98 3e
       -1.2017086 -0.11233992 -0.8134294 0.29803598
000140 74 8d 6d bc 14 7c 3b b9 93 ad 3b 3f a3 96 64 bd
       -0.014499057 -0.00017879932 0.7331173 -0.05580772
000150 cd 5b b0 3e fe 9d cc bd 75 21 4e be 74 af 35 be
       0.34445038 -0.09991072 -0.2012995 -0.17742711
000160 d4 48 6e bf 71 5f 26 bf b2 ca ee bd 21 45 86 bf
       -0.93079877 -0.6498938 -0.11659755 -1.0489846
000170 dc 89 26 3d 42 34 34 3f 70 2c 39 3f 18 98 2b bc
       0.040658817 0.7039224 0.7233343 -0.010473274
000180 6b 88 40 bc 48 1a 01 3f 7a 6b 20 bf bf ef 24 3f
       -0.011751275 0.50430727 -0.62663996 0.64428324
000190 e9 59 f0 be 4c 6e 16 3f 04 cb 45 3f f4 06 8f bd
       -0.46943596 0.5876205 0.772629 -0.06983748
0001a0 fa 55 0e bf 97 75 9e be f6 a3 44 be ec 29 1f be
       -0.5559994 -0.3094909 -0.19203171 -0.15543336
0001b0 4d 30 b3 3e 44 7d 3b be d8 22 37 bf 69 03 f4 be
       0.34997788 -0.18309504 -0.7153754 -0.47658852
0001c0 8d 65 79 bf a9 75 f1 be f6 42 22 bf bc 81 57 3f
       -0.9742058 -0.4716008 -0.63383424 0.84182334
0001d0 07 41 56 be 36 cc a3 3e d7 47 87 bc 66 d2 4a be
       -0.20923243 0.31991738 -0.016513748 -0.19806823
0001e0 0c 51 4b be 70 0c a7 be 49 a7 08 bf ea 8b 90 be
       -0.19855136 -0.32626677 -0.53380257 -0.28231746
0001f0 7d 2c 00 be 9e 4f 0c bf 7f 34 eb bc f5 6f 90 be
       -0.12516971 -0.54808986 -0.028711556 -0.28210416
000200 ab 77 9e bf a6 50 27 bd 3e f8 02 bf 2e 48 6e 3e
       -1.238027 -0.040848397 -0.5116004 0.23269722
000210 d9 65 00 3e 4d db 17 be 70 55 df 3d 9e 9d 37 bc
       0.12538852 -0.1482975 0.10904968 -0.011207012
000220 d1 d0 ab 3e 66 78 71 be af ee 04 3f 5f cf f8 be
       0.33557752 -0.23581085 0.519267 -0.48595712
000230 45 54 ff bd 7c 1d 22 3e 68 8e f3 3d 67 d9 16 bf
       -0.12467245 0.1583156 0.11892396 -0.5892548
000240 b3 82 b3 bf 40 94 e0 be 1c de f8 3e 52 12 8d be
       -1.4024261 -0.43863106 0.48606956 -0.2755304
000250 b6 b5 84 3d 4a c9 d7 3d 00 f4 c9 3e cf 53 24 3f
       0.06479971 0.1053644 0.3944397 0.6419038
000260 e9 a2 01 3f 7c 52 db 3d 8a ec 8d be ff 3c 90 3f
       0.50639206 0.10709092 -0.27719527 1.1268615
000270 a4 cd 89 be 84 39 55 be b8 9f 53 3f c1 2e 83 bf
       -0.26914704 -0.20822722 0.82665586 -1.0248643
000280 1b 24 7a be 78 9e 46 3f 6b b4 12 be 36 4c 40 3f
       -0.24427836 0.77585554 -0.14326636 0.7511629
000290 78 93 13 bf d1 d1 ed be 7f 46 84 bf 1c 50 8d 3f
       -0.57646894 -0.4644914 -1.0334014 1.1040072
0002a0 bd 77 c4 bf dd b2 33 3f 3b 90 df be 1d 58 1e 3f
       -1.5349041 0.701948 -0.43664727 0.618532
0002b0 3a 07 8f be 05 b1 8b 3e 0a fa 83 be d0 62 09 be
       -0.279352 0.27283493 -0.25776702 -0.134166
0002c0 d3 cb e5 3c 53 ee 13 3f 3e 0b d6 be ce 8f 1a bf
       0.028051293 0.5778553 -0.41805452 -0.6037568
0002d0 ae 2a 2b 3e 30 75 d0 be a9 1d 6a 3e fc 63 e1 be
       0.167155 -0.40714407 0.22862877 -0.44021595
0002e0 f6 47 27 bf 99 00 2c be 9f 0a 01 3f b0 90 f0 bc
       -0.6534418 -0.16797103 0.5040683 -0.029365867
0002f0 56 d9 03 bf d5 bd 3e 3f 1a 36 69 be 9d 4d 44 3f
       -0.51503503 0.7450841 -0.22774544 0.7668093
000300 83 a0 bb be 25 40 18 c0 63 4d 73 3f 27 5a 56 be
       -0.36645898 -2.378915 0.9503996 -0.20932828
000310 1f 21 23 bf 1e 37 1e bf 62 a7 47 3f 3a c4 80 be
       -0.63722414 -0.6180285 0.7798978 -0.2514971
000320 f2 cb a0 be bf 65 94 3d 0e 02 bd be 44 06 1e bf
       -0.31405598 0.07245969 -0.3691563 -0.6172831
000330 6c 9f 8c bf 11 f9 54 3f 25 d3 26 3e fe a3 ce be
       -1.0986152 0.83192545 0.16291483 -0.4035949
000340 70 08 43 3e 1c ab ec 3c 09 ba 72 be 94 21 84 3f
       0.19046187 0.028890185 -0.2370378 1.0322747
000350 e2 a4 58 3e 0c 0f 89 3c 44 89 3b bf fe 5f a2 3f
       0.21156648 0.016730808 -0.73256326 1.2685544
000360 f1 c9 8b be 73 d6 fa bd 71 c1 8a bf df c7 6b be
       -0.27302507 -0.12247934 -1.0840284 -0.23025464
000370 fe 75 ae 3f d2 f0 f0 be 39 e0 59 be 4e 2c 18 bc
       1.3629758 -0.4705873 -0.2127694 -0.009287907
000380 9d 29 0b bb 56 61 c6 be 30 5b b2 be 84 11 83 be
       -0.002123452 -0.38746136 -0.34835196 -0.255993
000390 a2 c8 8b bf 8a 7e 17 bb d5 81 42 be 6e d4 0b 3e
       -1.0920603 -0.0023116195 -0.1899484 0.13655254
0003a0 19 a5 bb be a7 f2 f8 be 36 7a f4 3c ba ce ce bd
       -0.36649397 -0.4862263 0.029843431 -0.10098024
0003b0 b1 0f 8b be 4c 8f e8 3e 19 0d 41 3f 47 34 0b bd
       -0.2716041 0.45421827 0.7541061 -0.033985402
0003c0 c1 6a 1b bf e4 01 1a 3f c3 30 75 bf c6 c6 e1 3e
       -0.6070977 0.60159135 -0.9577753 0.44096965
0003d0 91 c4 89 3f b8 8b 0d bf 5c 74 05 3e 23 9d 36 3e
       1.0763112 -0.5529132 0.13032669 0.1783338
0003e0 38 e4 4c 3f c1 7a 16 3f f5 06 52 3f 15 67 39 3f
       0.80035734 0.5878106 0.82041866 0.72422916
0003f0 fb a5 cb 3c 5c 24 f4 be 1c 23 22 bd 31 60 a5 3f
       0.02485942 -0.4768399 -0.039584264 1.291998

lmModel.model.3.bias f4 [16]
000000 47 11 54 bd fd ae 33 bd 68 b4 8c 3d 84 6f 8f bd
       -0.05177429 -0.043868054 0.06870347 -0.07003692
000010 ce fe 0b bd 01 3f 4d bc cc 32 15 3d 1b 8c 41 bd
       -0.034178548 -0.012527228 0.036425397 -0.047252756
000020 67 76 e1 3c 3f 46 83 bd f4 e0 ac 3b bd eb 10 bd
       0.027522279 -0.06409883 0.00527584 -0.035381068
000030 12 6d 53 bd 07 7e b2 bd 6c 42 d7 3b 1e 1e 12 bb
       -0.05161769 -0.08715444 0.0065691974 -0.0022295783

lmModel.model.4.weight f4 [16]
000000 51 34 33 3f bf b3 d1 3f 89 6f b1 3f 9e 37 1a 3e
       0.70001704 1.6382979 1.3862163 0.15060279
000010 20 62 d6 3f 99 0b 8e 3f f9 64 89 3d 90 56 a0 3f
       1.6748695 1.1097289 0.06708712 1.2526417
000020 7a 67 02 3f d4 0a 8a 3f 2a 19 ca 3f 9d 9a 79 3f
       0.5093914 1.0784554 1.578893 0.97501546
000030 c3 20 ab 3f 97 b5 ab 3f ad 1f 89 3d 34 a2 80 3f
       1.3369373 1.3414792 0.06695495 1.00495

lmModel.model.4.bias f4 [16]
000000 02 4b b5 3f 56 01 af bc 7d 0a 3d bf 61 ab 93 bf
       1.4163516 -0.021362942 -0.7384413 -1.1536676
000010 39 f8 45 3d 50 f3 db 3f 20 c2 d1 be 8e f0 9d 3e
       0.048332427 1.7183628 -0.40968418 0.3084759
000020 ba a5 d5 3f 52 4b 8f bf 9c d9 b1 bd 6c 29 1c bf
       1.6691201 -1.1194861 -0.08684084 -0.61000705
000030 45 8d a0 3d 67 b5 e8 3f b2 2d a5 3f bb a0 83 3f
       0.07839445 1.818036 1.290457 1.0283426

lmModel.model.4.running_mean f4 [16]
000000 d6 3e c1 c0 0c 03 5b c1 41 5a ab c0 be 3b 24 41
       -6.0389204 -13.688244 -5.3547673 10.2645855
000010 15 c2 76 40 f9 11 d8 c0 9c 53 45 be 86 db 56 c0
       3.8555958 -6.752194 -0.19270176 -3.3571486
000020 b4 13 8c 41 91 54 c8 41 b8 b0 48 c1 40 59 4f c1
       17.50962 25.041292 -12.543144 -12.95929
000030 0a 5d 8e c0 87 f8 a3 41 4d 67 22 40 2e d3 2b c0
       -4.4488573 20.496351 2.537555 -2.6847644

lmModel.model.4.running_var f4 [16]
000000 a2 83 74 43 54 d0 1e 43 bb 7a 02 43 ef b8 7d 41
       244.51419 158.81378 130.47942 15.85765
000010 5a 95 ad 42 ad 56 eb 42 f3 4e 38 41 74 2d 5d 42
       86.7917 117.66929 11.519275 55.294388
000020 e6 0d 8a 43 60 07 17 43 3f 6c 00 42 f1 44 68 43
       276.10858 151.02881 32.10571 232.2693
000030 9d 3f 5b 42 93 2c 16 43 5d 45 6a 43 da 89 03 43
       54.812122 150.17412 234.27095 131.53848

lmModel.model.6.weight f4 [16, 16]
000000 13 a4 b1 3e 2b c3 53 3f 42 72 a0 3f 25 b0 39 3e
       0.3469549 0.8271968 1.2534869 0.181336
000010 bb 77 7c 3f c3 f6 de 3e 22 ec 9c 3d b3 21 42 3f
       0.98620194 0.4354764 0.07662226 0.7583267
000020 88 e7 50 3f 6d 28 c7 3e 64 65 48 bd 68 f9 fc be
       0.8160329 0.3889803 -0.04892482 -0.49409032
000030 0f 8d ad 3f c8 d3 bd be 0e 94 51 3e df df 35 3f
       1.3558673 -0.3707564 0.20466635 0.71044725
000040 98 5a de 3e ed f1 ca 3e 54 8c 81 3e 5c 5b d7 3e
       0.43428493 0.396377 0.25302374 0.4206189
000050 94 e8 2f 3f c8 4e 9c 3f 81 d1 7d 3e 80 db 43 3f
       0.6871426 1.2211542 0.2478695 0.76506805
000060 da 40 d1 3e 01 c2 2d 3f 59 a5 a6 3d 51 4f 29 3f
       0.4086979 0.6787415 0.08137006 0.6613665
000070 bf 88 8a 3f c5 2b e8 be 7e ac 0c 3e 31 ec 82 3e
       1.0822982 -0.45345894 0.13737676 0.25570825
000080 c9 7c b9 3e d1 00 e4 bd a3 b7 cc 3f ac 4a 04 bf
       0.36228016 -0.11132968 1.5993541 -0.5167644
000090 9f 3c 7f bf 3f bf 2b bf 79 b7 5e be 30 68 a7 3e
       -0.99701875 -0.67088693 -0.21749677 0.32696676
0000a0 dc e4 68 3f 77 39 b5 be d0 75 93 be 56 ed 7f bf
       0.9097421 -0.35395405 -0.2880082 -0.9997152
0000b0 8f f7 8a 3f fa a1 5d 3e 8e 06 ab 3f 6e 1b e3 3e
       1.0856799 0.2164382 1.3361375 0.44356865
0000c0 e8 7a 9b bf 33 3d 1b c0 ba 58 30 3f 84 95 87 3e
       -1.2146883 -2.4256103 0.68885386 0.2648126
0000d0 bd a8 5d 3e 92 26 85 bd 44 a6 7a be 7d b1 16 bf
       0.216464 -0.06501497 -0.24477488 -0.58864576
0000e0 ce f9 b5 3c e6 dc 44 be 8b ab e0 be 01 07 a2 be
       0.022213843 -0.19224891 -0.43880877 -0.3164597
0000f0 87 67 eb 3c 13 51 fa 3f 90 42 24 3e 81 e3 65 bf
       0.02873589 1.9555992 0.16041017 -0.8980027
000100 65 7f 6a bf 61 89 0c 3f b2 2a ab be 1e 4e 1c be
       -0.9160064 0.54897124 -0.3343101 -0.15264174
000110 7e bc 8c be 1e 59 8b 3f 85 8d 15 3e 61 b1 a3 be
       -0.27487558 1.0886571 0.14604767 -0.31971267
000120 e5 6e b6 bf 0b dc cc 3d b9 a3 5a bf 07 76 1e 3f
       -1.4252592 0.10002907 -0.8540607 0.61898845
000130 c4 ad 82 be b7 10 e2 3c cc 23 a4 bf 28 71 1f bf
       -0.25523198 0.02759586 -1.2823424 -0.6228204
000140 b0 38 dc 3f de 67 71 be d3 8d fe 3e e9 5e f3 bd
       1.72048 -0.23574778 0.49717578 -0.11883337
000150 61 28 9a be 05 02 0e 3f 6b be 90 bd 45 32 61 bf
       -0.30108932 0.5547183 -0.07067569 -0.8796733
000160 56 20 5e be 09 19 1b be 44 04 af 3c ed 8f f1 3e
       -0.21692023 -0.15146269 0.021364339 0.4718012
000170 c8 7a 87 3e 9a bf a1 bf 0a 99 a8 3e a4 62 ca 3f
       0.26460862 -1.2636597 0.3292926 1.5811353
000180 a1 63 12 3e a4 95 91 be 37 58 97 be 9e ee ad be
       0.14295818 -0.2843448 -0.2955949 -0.33971113
000190 bd dd fe be be 23 2e bf 15 bd 4e be 91 af 8b bf
       -0.49778548 -0.6802329 -0.20189317 -1.0912954
0001a0 16 d6 32 3f 8a 8b 61 3f 50 e8 0c bf 34 ca f6 be
       0.6985792 0.88103545 -0.5504198 -0.48201144
0001b0 7b e0 2f bc cb 83 8b 3f ac df 33 3f 9f 80 47 3e
       -0.010734673 1.0899595 0.7026317 0.19482659
0001c0 0c b9 34 bd 65 fc 04 3e 8a f4 ca 3f b1 de f9 bd
       -0.044121787 0.12986906 1.5855877 -0.12200678
0001d0 51 79 30 be 25 bf 1b bd ef 16 8d 3e 51 14 a5 3e
       -0.17233779 -0.038024087 0.2755656 0.32242063
0001e0 82 97 14 40 19 69 3c be b3 e5 ff be 65 ea 81 bf
       2.3217473 -0.18399467 -0.49979934 -1.0149657
0001f0 96 5e 8d 3f 34 5c 50 3f 55 6d 88 3f 15 47 11 3e
       1.104449 0.8139069 1.0658365 0.14187272
000200 c0 c8 45 3f 82 8c ba 3e b7 bc 92 3f ad 1f 3c bd
       0.77259445 0.36435324 1.1463841 -0.045928646
000210 4a 38 c6 bf c5 f3 42 be 24 c7 ba be ca 34 8c 3f
       -1.5485928 -0.19038303 -0.36480057 1.095361
000220 f0 14 2c 3f 7e 28 bd be 33 04 a7 bf aa 50 b4 bf
       0.6721945 -0.36944956 -1.3048156 -1.4087117
000230 5a ac 6a 3f 13 9b d0 be c1 f6 04 3f 80 d7 4e 3f
       0.9166924 -0.40743312 0.51939017 0.80797577
000240 8a ec 15 3f 1d 80 d4 bd bf 54 66 bd d6 60 d7 be
       0.58564055 -0.10375998 -0.056233164 -0.42066067
000250 6e 93 39 3e ce f1 36 3f 3b e2 c4 be e1 b3 8f 3d
       0.18122646 0.71462715 -0.3845385 0.07016731
000260 8e ce f1 bc e0 2d cc be 45 43 02 bf d0 b0 13 bf
       -0.029517438 -0.3987875 -0.50883895 -0.5769167
000270 1e d6 4f bf d9 df 43 c0 d2 3a f8 bc 0f ff 8d 3f
       -0.8118609 -3.0605376 -0.030301485 1.1093463
000280 81 47 7a 3f c8 57 21 3f fc 16 23 3f 65 88 91 be
       0.97765356 0.6302457 0.63706946 -0.28424373
000290 19 35 4a bf 6a 27 8a be f6 65 82 be 66 fa 04 be
       -0.7898727 -0.26983196 -0.25468415 -0.12986144
0002a0 b5 f9 9f 3f b0 9f af bc b0 ec 9f be 39 da a1 bf
       1.249808 -0.02143845 -0.31235266 -1.2644721
0002b0 07 82 94 3f 47 9e 8b 3e 87 5c e3 3f 42 fc 55 3f
       1.1602181 0.27269194 1.7762612 0.8358804
0002c0 b4 ca 9e 3e e8 21 5f bf f6 5a 23 3f 55 b0 de bd
       0.31014025 -0.8716111 0.6381067 -0.108734764
0002d0 c5 cb 87 be b2 62 06 40 56 70 aa 3d 7a 10 83 bf
       -0.2652265 2.099774 0.08322208 -1.0239403
0002e0 bd f4 5d be 0b 9d 8a bf 56 94 98 bf 1d 30 df 3e
       -0.21675391 -1.0829176 -1.1920269 0.43591395
0002f0 8f 2a a1 be 86 f4 5d bf af 74 50 3e 2b 24 91 3e
       -0.31477782 -0.8670124 0.20357011 0.28347906
000300 5e 03 dd bd be f8 fd bd 60 e3 05 3f e4 0f 86 be
       -0.10791658 -0.124009594 0.5230007 -0.26184
000310 4e a4 05 40 a4 7f a3 3f 03 50 e2 3c d3 9d c0 bf
       2.0881534 1.2773328 0.027626043 -1.5048164
000320 be 96 5b be ce 78 8b bf 49 79 99 3e 48 c1 06 bf
       -0.21444222 -1.0896242 0.29975346 -0.52638674
000330 00 72 ff 3d 88 65 d8 3d ae 00 ee 3d 2b 63 4f bd
       0.12472916 0.105662405 0.116212234 -0.050631683
000340 c1 f1 2e bf 61 47 85 3e 9e 77 10 bf 78 a1 e7 3e
       -0.6833764 0.2603102 -0.5643252 0.45240378
000350 64 4c 9c bf 4e 84 fc bf 1d 47 0e be d5 d4 7a 3f
       -1.2210813 -1.9727876 -0.13894315 0.97981006
000360 5c f5 6d 3d 25 0a b4 3f ef 62 96 bf c5 1c a9 bd
       0.05809532 1.4065596 -1.1748942 -0.082574405
000370 f6 88 fc be 6e ee 74 be 4c c9 f4 bd fd b7 42 bf
       -0.49323243 -0.23919079 -0.11952457 -0.76061994
000380 31 d7 a8 bd 57 14 46 3d 40 6d c6 be 41 f0 35 3e
       -0.082441695 0.04835924 -0.38755226 0.17767431
000390 5f 7d 64 bc be 6c 6a 3d c8 ab 2b 3d cd a9 5c 3d
       -0.013945906 0.05723261 0.04191187 0.053872872
0003a0 32 80 df be b2 30 6b be fc 41 18 be 66 48 bc 3d
       -0.43652493 -0.22967795 -0.14868921 0.091934964
0003b0 85 5a b6 be 63 42 c1 bd 72 3d 3c bf 18 61 8e be
       -0.35615936 -0.094364904 -0.7353126 -0.27808452
0003c0 eb 79 91 3f 91 84 be be 76 17 c2 3f e7 aa 5a bc
       1.1365331 -0.37210515 1.516341 -0.01334641
0003d0 aa 20 ef bd 9f 2e a1 be 05 d6 1a 3e 64 e4 ce bd
       -0.11676152 -0.31480882 0.15120704 -0.10102156
0003e0 b0 bb b4 3f 39 09 8c be 12 65 4d 3e d1 b5 de 3d
       1.4119778 -0.27350786 0.20058087 0.108745225
0003f0 cb 41 a5 3f 48 65 f6 bd 7a 0b 29 3f 30 5c 91 3f
       1.2910703 -0.120310366 0.66033137 1.1356258

lmModel.model.6.bias f4 [16]
000000 7e 5b 2f 3e 2d 99 a4 3d 4f 79 50 3e 43 db 42 3e
       0.17124745 0.080370285 0.20358776 0.19028954
000010 01 ac 43 3e 07 9c 25 be 71 59 03 be 70 bc 2d 3e
       0.19108583 -0.16172801 -0.12827088 0.16966414
000020 31 1e 50 3e 69 45 3f be b7 06 14 3e de 45 33 3e
       0.20324017 -0.18678822 0.14455687 0.17507121
000030 b7 91 c1 3d 17 e5 00 bd fa 14 f7 bd ab 2e de bb
       0.09451621 -0.031468477 -0.12064548 -0.0067804656

lmModel.model.7.weight f4 [16]
000000 0a 51 fb 3e 67 de 2e 3f 57 9e 8a 3e 66 ab 1c 3f
       0.49085265 0.6830811 0.2707393 0.61199033
000010 65 4c 5a 3f fb d7 2d 3f 0f 4a 03 3e 83 27 4d 3f
       0.8527282 0.67907685 0.1282122 0.80138415
000020 ee 7d 17 3f 71 2c 52 3f 84 53 fa 3c 4d 18 0d 3f
       0.5917653 0.8209906 0.030557401 0.55115205
000030 49 e4 69 3f cc 3e 93 3f c7 10 55 3e 2c f3 84 3e
       0.9136396 1.1503539 0.20807181 0.25966775

lmModel.model.7.bias f4 [16]
000000 1e 74 a3 3f 96 70 37 bf bc fc a8 3f fd ac bc 3f
       1.2769811 -0.7165617 1.3202128 1.4740292
000010 22 cb 4a bf 0f 74 b4 be b9 c4 6c bf a7 a6 fc 3e
       -0.79216206 -0.35244796 -0.92487675 0.49345896
000020 ca 30 ed 3e 9c 7f 90 3f 7a e4 65 3f f0 e9 8d 3f
       0.46326286 1.1288943 0.8980175 1.1087017
000030 67 f0 b4 be ab c6 9f 3e 84 0e 23 bf b9 07 7a bf
       -0.35339662 0.3120626 -0.63694024 -0.97668034

lmModel.model.7.running_mean f4 [16]
000000 38 dd bb 40 e9 3b a9 40 45 4c 71 40 94 54 4c bf
       5.8707542 5.2885633 3.7702801 -0.79816556
000010 35 44 92 c0 e8 75 10 40 92 c0 ca 3f 66 28 f4 40
       -4.570826 2.2571964 1.5840018 7.6299314
000020 d1 c3 27 40 9a b7 54 c0 f1 f4 e3 40 2f 1a 45 3f
       2.6213267 -3.3237062 7.12365 0.7699308
000030 04 71 27 40 80 0d da c0 4f 9d 28 c0 b4 97 c5 40
       2.616273 -6.814148 -2.6346014 6.1747684

lmModel.model.7.running_var f4 [16]
000000 d0 7e 78 40 6a 7e 28 40 1e 10 07 41 fe cf 76 41
       3.88274 2.6327157 8.441435 15.425779
000010 1d e0 f5 40 86 10 0a 41 96 9a 0f 41 ef 15 37 41
       7.6836076 8.629034 8.975241 11.442855
000020 b7 92 17 41 8d da 97 41 08 4d 20 41 01 ec 1f 41
       9.473319 18.981714 10.018806 9.995118
000030 c9 f3 2b 41 be e8 65 41 22 75 5a 3f 73 60 43 41
       10.747018 14.369322 0.8533498 12.211047

combined_model.0.weight f4 [8, 1040]
000000 d0 d8 4d bf 0a a2 24 bf ce c8 26 bc e3 cd 3b be
       -0.80408955 -0.6430975 -0.0101797115 -0.18340258
000010 8b 87 9a be 0b 24 40 be 0a 6f b5 be 87 5d c7 3e
       -0.30181536 -0.1876375 -0.3543628 0.38938543
000020 8b 76 49 be 5c cc 2d bf eb 21 18 3f fe 34 aa be
       -0.19674127 -0.6788995 0.59426755 -0.33243555
000030 7c 96 4a 3d 93 82 16 bf d5 e5 17 bf 0b 01 74 bf
       0.04945992 -0.5879299 -0.5933507 -0.9531409
000040 dc 98 31 bf 0a 30 80 be 97 49 a6 bf d5 94 03 bf
       -0.6937387 -0.2503665 -1.2991208 -0.51398975
000050 03 d8 27 3d b1 ab a3 3e 75 b6 0a be 3f 4d 86 bd
       0.04097749 0.31966928 -0.13546164 -0.06557702
000060 21 32 43 bc 24 f7 c1 3e 84 5f c7 3d 41 c8 29 be
       -0.011913807 0.37883866 0.09735015 -0.16580297
000070 ef 83 0b 3e 1c b4 88 3d 88 24 4a bf f0 a1 3e be
       0.13624547 0.06674978 -0.7896199 -0.18616462
000080 b3 5e 27 bf ca 2e 31 be 51 c8 56 bf c4 c8 9c bf
       -0.65378875 -0.17303005 -0.8389941 -1.2248769
000090 e8 71 35 bc 86 19 c1 3d a9 74 26 3f c2 a5 b4 3e
       -0.011074521 0.09428696 0.6502176 0.35282713
0000a0 05 b6 20 bf 10 cf f8 3d ff f6 d3 be a2 88 9b be
       -0.6277774 0.12148869 -0.4139938 -0.3037768
0000b0 d5 6e 13 3f b1 b7 32 3f ab 99 2a 3f ab 3d c9 3e
       0.5759099 0.6981154 0.6664073 0.3930486
0000c0 f2 2a fc 3d 01 a6 51 bf a4 58 83 3e a3 90 b4 3d
       0.12312879 -0.81893927 0.25653565 0.0881665
0000d0 9b d5 d4 3e 16 d5 18 3e 92 5e 22 3f cd 10 b1 bd
       0.41569218 0.14925036 0.6342555 -0.086457826
0000e0 cb 07 93 bf 79 e6 79 bc 26 1d f4 be ee d9 bc 3e
       -1.1486753 -0.015252703 -0.47678488 0.36885017
0000f0 93 ad 09 c0 d3 9d 6c bf 07 2d 6d bf 5f 03 2e be
       -2.1512191 -0.9242832 -0.9264683 -0.16993473
000100 74 37 b6 bd aa f1 eb be 4d 41 16 be 43 06 54 bf
       -0.088972956 -0.46082813 -0.14673348 -0.82822055
000110 f4 6d 8f 3d af d6 df be 63 da 7b bf 4c a7 4b bf
       0.07003394 -0.43718478 -0.98380107 -0.7955215
000120 07 97 a9 bf d9 1b df be 1b 16 54 bf bf 78 14 bf
       -1.3249215 -0.43575934 -0.8284623 -0.57996744
000130 3c 0d aa 3e c9 30 e1 bd f8 b1 63 be 16 f4 19 3f
       0.33213222 -0.10995633 -0.22235858 0.6013807
000140 e8 85 a2 3e bf 7f ad 3e 59 fb f2 3c 26 fc 25 3f
       0.31742787 0.33886525 0.029660868 0.64837873
000150 b5 a6 44 bf 3b 4c 4c be 66 d6 55 bf 9f 96 dd be
       -0.76816875 -0.19950955 -0.8353027 -0.43278977
000160 e8 a4 b0 3e 68 0b bc 3e 25 2f 00 bf 86 24 47 bd
       0.34500813 0.36727452 -0.50071937 -0.048618816
000170 cb a2 47 bf 59 87 ab be fc 45 3e be c3 76 bc be
       -0.7798278 -0.335017 -0.18581384 -0.36809358
000180 94 ab 78 be 91 40 a3 be ff 30 64 3f 4f 27 82 3f
       -0.24284202 -0.31885198 0.8913726 1.0168246
000190 aa fb c5 bf 4a ba 8d be 8e e6 c8 bf c2 d9 70 bf
       -1.5467427 -0.2768119 -1.569536 -0.9408227
0001a0 c3 b1 0f be 1c 53 df be 4f e7 82 bd ae 94 28 be
       -0.14032654 -0.43618095 -0.06391775 -0.16462967
0001b0 1a ff d3 3e db d5 15 be 71 c1 95 3e ac 95 60 3f
       0.41405565 -0.1463236 0.29249147 0.8772838
0001c0 d2 e3 33 3f fc ca 7e 3d be 05 ac 3f e1 48 3a be
       0.702695 0.0622053 1.3439252 -0.18191864
0001d0 7f 20 5e 3f bf b0 df 3d 7a 6f ad 3e 77 fc 4d bd
       0.86768335 0.109223835 0.33874112 -0.050289597
0001e0 cc 0a 19 bf b6 1c 99 be 64 4e 88 bf 4f cc 32 bf
       -0.597821 -0.29904717 -1.0648923 -0.69843
0001f0 3d 81 39 bd 25 3a b7 3e ad ac 70 3d 02 af 66 3e
       -0.045289267 0.35786548 0.058758426 0.22527698
000200 06 af 81 3e ab 9a e4 3f 14 d9 2b be 07 fd 8a 3f
       0.25328845 1.7859701 -0.16782027 1.0858468
000210 be e2 6f 3f 38 17 8a be 35 8a 3b be de 33 25 bf
       0.93705356 -0.2697084 -0.1831444 -0.6453227
000220 4e 81 09 bf ce b9 ef bd d2 c3 f3 be 32 6d 5a be
       -0.5371293 -0.11705361 -0.47610337 -0.21330717
000230 3e 51 09 bf a4 70 94 bc 60 f6 00 bf 2d ee db 3d
       -0.5363959 -0.018120117 -0.5037594 0.10738788
000240 4c 3e 7c 3d ff 27 88 be 86 33 19 3e e3 43 f1 be
       0.06158285 -0.26593015 0.14961061 -0.47122106
000250 c8 53 4a be 6b 0d 5e be 74 45 9b 3f 3d 27 30 3f
       -0.19758523 -0.21684806 1.213057 0.6880987
000260 b1 38 4f bf 06 57 b7 be c6 d3 24 bc c7 51 a7 be
       -0.8094588 -0.3580858 -0.010060256 -0.3267958
000270 1a e5 f6 3e c7 4e 22 3e 04 d3 e8 3e 3f 5d 32 3e
       0.48221666 0.15850364 0.45473492 0.17418383
000280 2d e4 c8 3e 18 69 aa 3f 51 02 95 be f5 e1 a4 be
       0.39236584 1.3313322 -0.2910333 -0.32203642
000290 22 e4 16 3f e0 b7 53 3d 8e 9b 21 3e bc 85 b3 3e
       0.58941853 0.05168903 0.15781996 0.3506297
0002a0 b9 ba 64 3e 25 52 98 3f 33 3e 5f bf 01 21 bf 3c
       0.22336854 1.1900069 -0.87204283 0.023331167
0002b0 2d 37 ba bc 37 d3 a9 3e e1 ed 6d 3f c3 22 ce 3d
       -0.022731388 0.33168957 0.929411 0.10065224
0002c0 1e e1 e0 3e 45 6b 49 3f 70 63 f7 3e 1f 97 0f 3f
       0.4392175 0.78679305 0.48318052 0.5608997
0002d0 7d db bc bf ef af 6a bf ff 46 a5 be 98 a3 c8 be
       -1.4754483 -0.91674703 -0.32280728 -0.39187312
0002e0 ad eb 85 bf 12 a2 5f 3e ed 80 0d 3f 19 f0 15 3f
       -1.0462548 0.21839169 0.5527485 0.58569485
0002f0 c1 00 68 bf 97 00 7c bf 6e c6 d9 bf bb c6 ba bf
       -0.9062615 -0.984384 -1.7013681 -1.4591898
000300 d2 c4 a4 3e 0f e3 42 bd a0 e8 01 3f b4 db 25 3f
       0.32181412 -0.04757982 0.5074558 0.64788365
000310 e8 6f 09 bf 41 d4 11 bd 60 ba 60 3e df df 0e 3f
       -0.5368638 -0.03560281 0.21946096 0.5581035
000320 d6 ce 84 3a 23 51 72 bf 67 48 7a bd 4d c6 66 bf
       0.0010132443 -0.94655055 -0.061104205 -0.9014633
000330 d9 62 cc 3f 0f 9d c4 3e bc ee 12 3f d7 ff 9e 3e
       1.5967666 0.38401076 0.5739553 0.31054565
000340 6c d9 0b 3f f9 40 71 3e 0f b9 0f 3f ef 18 44 3f
       0.54628634 0.23559941 0.5614175 0.76600546
000350 57 46 90 3f 94 5e 61 bd c2 6a 0a 3f 43 f1 7e 3f
       1.1271466 -0.055021837 0.5406915 0.99586886
000360 31 96 4d be 0a 73 99 bd 4a 26 14 bf d2 37 9f 3e
       -0.20076825 -0.07492645 -0.57870924 0.31097275
000370 62 6c 77 3f c4 69 00 bf ec c1 1c 3d f4 e2 ac bd
       0.96649754 -0.50161386 0.038270876 -0.084417254
000380 cc da 72 be 99 f9 e8 3d 0b 8f 35 bc 15 f2 fa be
       -0.23716277 0.11375732 -0.011081467 -0.4901282
000390 07 1c 5a bf 90 ee 62 3f c5 bf ec be 2e 51 0d be
       -0.85199016 0.8864527 -0.4624006 -0.13800499
0003a0 20 d2 0e 3f 47 35 69 3e e7 96 21 3f 24 42 61 3e
       0.55789375 0.2277423 0.63120884 0.21997887
0003b0 32 5b 13 3f 54 7b 90 3f 9c ac a7 bd 00 b2 6a 3c
       0.5756103 1.1287637 -0.081872195 0.014324665
0003c0 ff 4b 02 3f 17 77 53 bd 22 03 0d 3f 80 7c d7 bd
       0.5089721 -0.051627245 0.55082905 -0.10521793
0003d0 d6 26 1f be 1d 42 c5 3d 52 d7 80 bf 59 0e ef be
       -0.15542158 0.09631751 -1.006571 -0.46690634
0003e0 7c 8e af be 6e 6f 12 3f 25 25 fa 3e af 97 63 3d
       -0.34288394 0.5720128 0.48856464 0.05556458
0003f0 51 77 e1 be a0 c2 7b 3d ca d2 d9 be 8c 53 13 bf
       -0.44036344 0.061464906 -0.42543632 -0.5754936

combined_model.0.bias f4 [8]
000000 66 56 b6 bb dd 7f 8f ba dd 16 6d bc 6d 69 93 bc
       -0.0055644987 -0.001094814 -0.014470783 -0.017994607
000010 6e 40 ba 3b 79 7e e8 bc 03 ef e4 3a 81 22 99 bc
       0.00568395 -0.02838062 0.001746625 -0.01869321

combined_model.1.weight f4 [8]
000000 fe 93 bb 3f e9 5e 9b 3f 51 41 3a 3f e7 3e 90 3f
       1.4654539 1.2138339 0.72755915 1.1269196
000010 f6 e2 ad 3f fb 5b 40 3f 08 22 8d 3f 51 76 ea 3f
       1.3584888 0.7514035 1.102601 1.8317357

combined_model.1.bias f4 [8]
000000 97 3e cf 3f 30 6c 8f 3c 7d 60 16 3f 89 6a cb 3d
       1.6190976 0.017507643 0.5874098 0.09932429
000010 a9 95 19 3d 49 c7 18 3e 16 c8 e8 bc 91 74 0c be
       0.037496243 0.14919771 -0.02841572 -0.13716342

combined_model.1.running_mean f4 [8]
000000 4a 12 42 bf ce cd 96 c0 92 fa 31 be 1e 04 b4 bf
       -0.75809157 -4.7126226 -0.17380741 -1.4063756
000010 e7 a3 c8 c0 23 61 dd c0 57 78 06 c0 43 70 b9 c0
       -6.2700076 -6.9181075 -2.101095 -5.794954

combined_model.1.running_var f4 [8]
000000 60 55 00 42 98 a5 a9 42 3f 33 0d 42 dc 07 8b 42
       32.083374 84.823425 35.300045 69.51535
000010 22 77 98 42 ed 43 9e 41 af 44 db 41 b4 2e 75 42
       76.23268 19.783167 27.408537 61.29561
